…
[2025-02-15 23:53:07,652] [INFO] [launch.py:256:main] process 3752009 spawned with command: ['/home/gcq/anaconda3/envs/phi/bin/python', '-u', 'train_deepspeed.py', '--local_rank=3', '--deepspeed', 'deepspeed_configs/ds_config.json']
[2025-02-15 23:53:07,670] [INFO] [launch.py:256:main] process 3752010 spawned with command: ['/home/gcq/anaconda3/envs/phi/bin/python', '-u', 'train_deepspeed.py', '--local_rank=4', '--deepspeed', 'deepspeed_configs/ds_config.json']
[2025-02-15 23:53:07,685] [INFO] [launch.py:256:main] process 3752011 spawned with command: ['/home/gcq/anaconda3/envs/phi/bin/python', '-u', 'train_deepspeed.py', '--local_rank=5', '--deepspeed', 'deepspeed_configs/ds_config.json']
MiniPhi3(
  (model): Phi3Model(
    (embed_tokens): Embedding(32000, 768, padding_idx=0)
    (embed_dropout): Dropout(p=0.0, inplace=False)
    (layers): ModuleList(
      (0-11): 12 x Phi3DecoderLayer(
        (self_attn): Phi3FlashAttention2(
          (o_proj): Linear(in_features=768, out_features=768, bias=False)
          (qkv_proj): Linear(in_features=768, out_features=2304, bias=False)
          (rotary_emb): Phi3RotaryEmbedding()
        )
        (mlp): Phi3MLP(
          (gate_up_proj): Linear(in_features=768, out_features=4096, bias=False)
          (down_proj): Linear(in_features=2048, out_features=768, bias=False)
          (activation_fn): SiLU()
        )
        (input_layernorm): Phi3RMSNorm()
        (resid_attn_dropout): Dropout(p=0.0, inplace=False)
        (resid_mlp_dropout): Dropout(p=0.0, inplace=False)
        (post_attention_layernorm): Phi3RMSNorm()
      )
    )
    (norm): Phi3RMSNorm()
  )
  (lm_head): Linear(in_features=768, out_features=32000, bias=False)
)
MiniPhi3(
  (model): Phi3Model(
    (embed_tokens): Embedding(32000, 768, padding_idx=0)
    (embed_dropout): Dropout(p=0.0, inplace=False)
    (layers): ModuleList(
      (0-11): 12 x Phi3DecoderLayer(
        (self_attn): Phi3FlashAttention2(
          (o_proj): Linear(in_features=768, out_features=768, bias=False)
          (qkv_proj): Linear(in_features=768, out_features=2304, bias=False)
          (rotary_emb): Phi3RotaryEmbedding()
        )
        (mlp): Phi3MLP(
          (gate_up_proj): Linear(in_features=768, out_features=4096, bias=False)
          (down_proj): Linear(in_features=2048, out_features=768, bias=False)
          (activation_fn): SiLU()
        )
        (input_layernorm): Phi3RMSNorm()
        (resid_attn_dropout): Dropout(p=0.0, inplace=False)
        (resid_mlp_dropout): Dropout(p=0.0, inplace=False)
        (post_attention_layernorm): Phi3RMSNorm()
      )
    )
    (norm): Phi3RMSNorm()
  )
  (lm_head): Linear(in_features=768, out_features=32000, bias=False)
)
MiniPhi3(
  (model): Phi3Model(
    (embed_tokens): Embedding(32000, 768, padding_idx=0)
    (embed_dropout): Dropout(p=0.0, inplace=False)
    (layers): ModuleList(
      (0-11): 12 x Phi3DecoderLayer(
        (self_attn): Phi3FlashAttention2(
          (o_proj): Linear(in_features=768, out_features=768, bias=False)
          (qkv_proj): Linear(in_features=768, out_features=2304, bias=False)
          (rotary_emb): Phi3RotaryEmbedding()
        )
        (mlp): Phi3MLP(
          (gate_up_proj): Linear(in_features=768, out_features=4096, bias=False)
          (down_proj): Linear(in_features=2048, out_features=768, bias=False)
          (activation_fn): SiLU()
        )
        (input_layernorm): Phi3RMSNorm()
        (resid_attn_dropout): Dropout(p=0.0, inplace=False)
        (resid_mlp_dropout): Dropout(p=0.0, inplace=False)
        (post_attention_layernorm): Phi3RMSNorm()
      )
    )
    (norm): Phi3RMSNorm()
  )
  (lm_head): Linear(in_features=768, out_features=32000, bias=False)
)
MiniPhi3(
  (model): Phi3Model(
    (embed_tokens): Embedding(32000, 768, padding_idx=0)
    (embed_dropout): Dropout(p=0.0, inplace=False)
    (layers): ModuleList(
      (0-11): 12 x Phi3DecoderLayer(
        (self_attn): Phi3FlashAttention2(
          (o_proj): Linear(in_features=768, out_features=768, bias=False)
          (qkv_proj): Linear(in_features=768, out_features=2304, bias=False)
          (rotary_emb): Phi3RotaryEmbedding()
        )
        (mlp): Phi3MLP(
          (gate_up_proj): Linear(in_features=768, out_features=4096, bias=False)
          (down_proj): Linear(in_features=2048, out_features=768, bias=False)
          (activation_fn): SiLU()
        )
        (input_layernorm): Phi3RMSNorm()
        (resid_attn_dropout): Dropout(p=0.0, inplace=False)
        (resid_mlp_dropout): Dropout(p=0.0, inplace=False)
        (post_attention_layernorm): Phi3RMSNorm()
      )
    )
    (norm): Phi3RMSNorm()
  )
  (lm_head): Linear(in_features=768, out_features=32000, bias=False)
)
MiniPhi3(
  (model): Phi3Model(
    (embed_tokens): Embedding(32000, 768, padding_idx=0)
    (embed_dropout): Dropout(p=0.0, inplace=False)
    (layers): ModuleList(
      (0-11): 12 x Phi3DecoderLayer(
        (self_attn): Phi3FlashAttention2(
          (o_proj): Linear(in_features=768, out_features=768, bias=False)
          (qkv_proj): Linear(in_features=768, out_features=2304, bias=False)
          (rotary_emb): Phi3RotaryEmbedding()
        )
        (mlp): Phi3MLP(
          (gate_up_proj): Linear(in_features=768, out_features=4096, bias=False)
          (down_proj): Linear(in_features=2048, out_features=768, bias=False)
          (activation_fn): SiLU()
        )
        (input_layernorm): Phi3RMSNorm()
        (resid_attn_dropout): Dropout(p=0.0, inplace=False)
        (resid_mlp_dropout): Dropout(p=0.0, inplace=False)
        (post_attention_layernorm): Phi3RMSNorm()
      )
    )
    (norm): Phi3RMSNorm()
  )
  (lm_head): Linear(in_features=768, out_features=32000, bias=False)
)
MiniPhi3(
  (model): Phi3Model(
    (embed_tokens): Embedding(32000, 768, padding_idx=0)
    (embed_dropout): Dropout(p=0.0, inplace=False)
    (layers): ModuleList(
      (0-11): 12 x Phi3DecoderLayer(
        (self_attn): Phi3FlashAttention2(
          (o_proj): Linear(in_features=768, out_features=768, bias=False)
          (qkv_proj): Linear(in_features=768, out_features=2304, bias=False)
          (rotary_emb): Phi3RotaryEmbedding()
        )
        (mlp): Phi3MLP(
          (gate_up_proj): Linear(in_features=768, out_features=4096, bias=False)
          (down_proj): Linear(in_features=2048, out_features=768, bias=False)
          (activation_fn): SiLU()
        )
        (input_layernorm): Phi3RMSNorm()
        (resid_attn_dropout): Dropout(p=0.0, inplace=False)
        (resid_mlp_dropout): Dropout(p=0.0, inplace=False)
        (post_attention_layernorm): Phi3RMSNorm()
      )
    )
    (norm): Phi3RMSNorm()
  )
  (lm_head): Linear(in_features=768, out_features=32000, bias=False)
)
[2025-02-16 00:28:55,373] [INFO] [real_accelerator.py:203:get_accelerator] Setting ds_accelerator to cuda (auto detect)
[93m [WARNING] [0m async_io requires the dev libaio .so object and headers but these were not found.
[93m [WARNING] [0m async_io: please install the libaio-dev package with apt
[93m [WARNING] [0m If libaio is already installed (perhaps from source), try setting the CFLAGS and LDFLAGS environment variables to where it can be found.
…
