…
[2025-02-16 15:49:34,255] [INFO] [comm.py:637:init_distributed] cdb=None
[2025-02-16 15:49:34,260] [INFO] [comm.py:637:init_distributed] cdb=None
[2025-02-16 15:49:34,429] [INFO] [comm.py:637:init_distributed] cdb=None
[2025-02-16 15:49:34,429] [INFO] [comm.py:668:init_distributed] Initializing TorchBackend in DeepSpeed with backend nccl
[2025-02-16 15:49:34,566] [INFO] [comm.py:637:init_distributed] cdb=None
[2025-02-16 15:49:34,613] [INFO] [comm.py:637:init_distributed] cdb=None
[2025-02-16 15:49:34,672] [INFO] [comm.py:637:init_distributed] cdb=None
MiniPhi3(
  (model): Phi3Model(
    (embed_tokens): Embedding(32064, 768)
    (embed_dropout): Dropout(p=0.0, inplace=False)
    (layers): ModuleList(
      (0-11): 12 x Phi3DecoderLayer(
        (self_attn): Phi3FlashAttention2(
          (o_proj): Linear(in_features=768, out_features=768, bias=False)
          (qkv_proj): Linear(in_features=768, out_features=2304, bias=False)
          (rotary_emb): Phi3RotaryEmbedding()
        )
        (mlp): Phi3MLP(
          (gate_up_proj): Linear(in_features=768, out_features=4096, bias=False)
          (down_proj): Linear(in_features=2048, out_features=768, bias=False)
          (activation_fn): SiLU()
        )
        (input_layernorm): Phi3RMSNorm()
        (resid_attn_dropout): Dropout(p=0.0, inplace=False)
        (resid_mlp_dropout): Dropout(p=0.0, inplace=False)
        (post_attention_layernorm): Phi3RMSNorm()
      )
    )
    (norm): Phi3RMSNorm()
  )
  (lm_head): Linear(in_features=768, out_features=32064, bias=False)
)
MiniPhi3(
  (model): Phi3Model(
    (embed_tokens): Embedding(32064, 768)
    (embed_dropout): Dropout(p=0.0, inplace=False)
    (layers): ModuleList(
      (0-11): 12 x Phi3DecoderLayer(
        (self_attn): Phi3FlashAttention2(
          (o_proj): Linear(in_features=768, out_features=768, bias=False)
          (qkv_proj): Linear(in_features=768, out_features=2304, bias=False)
          (rotary_emb): Phi3RotaryEmbedding()
        )
        (mlp): Phi3MLP(
          (gate_up_proj): Linear(in_features=768, out_features=4096, bias=False)
          (down_proj): Linear(in_features=2048, out_features=768, bias=False)
          (activation_fn): SiLU()
        )
        (input_layernorm): Phi3RMSNorm()
        (resid_attn_dropout): Dropout(p=0.0, inplace=False)
        (resid_mlp_dropout): Dropout(p=0.0, inplace=False)
        (post_attention_layernorm): Phi3RMSNorm()
      )
    )
    (norm): Phi3RMSNorm()
  )
  (lm_head): Linear(in_features=768, out_features=32064, bias=False)
)
MiniPhi3(
  (model): Phi3Model(
    (embed_tokens): Embedding(32064, 768)
    (embed_dropout): Dropout(p=0.0, inplace=False)
    (layers): ModuleList(
      (0-11): 12 x Phi3DecoderLayer(
        (self_attn): Phi3FlashAttention2(
          (o_proj): Linear(in_features=768, out_features=768, bias=False)
          (qkv_proj): Linear(in_features=768, out_features=2304, bias=False)
          (rotary_emb): Phi3RotaryEmbedding()
        )
        (mlp): Phi3MLP(
          (gate_up_proj): Linear(in_features=768, out_features=4096, bias=False)
          (down_proj): Linear(in_features=2048, out_features=768, bias=False)
          (activation_fn): SiLU()
        )
        (input_layernorm): Phi3RMSNorm()
        (resid_attn_dropout): Dropout(p=0.0, inplace=False)
        (resid_mlp_dropout): Dropout(p=0.0, inplace=False)
        (post_attention_layernorm): Phi3RMSNorm()
      )
    )
    (norm): Phi3RMSNorm()
  )
  (lm_head): Linear(in_features=768, out_features=32064, bias=False)
)
Dataset({
    features: ['instruction', 'input', 'output'],
    num_rows: 2479811
})
Dataset({
    features: ['instruction', 'input', 'output'],
    num_rows: 291742
})
========================================++++++++++++++++++++++++======================
##############################Fine Tuning Use LoRA##############################
Dataset({
    features: ['instruction', 'input', 'output'],
…
[2025-02-16 17:59:29,021] [INFO] [torch_checkpoint_engine.py:33:commit] [Torch] Checkpoint global_step450 is ready now!
{'loss': 4.4802, 'grad_norm': 0.07290315628051758, 'learning_rate': 5.465859949816299e-08, 'epoch': 1.9}
{'loss': 4.4808, 'grad_norm': 0.07364872097969055, 'learning_rate': 1.6282932576279775e-08, 'epoch': 1.95}
{'loss': 4.482, 'grad_norm': 0.07506625354290009, 'learning_rate': 4.5254256377913474e-10, 'epoch': 1.99}
{'train_runtime': 6311.5782, 'train_samples_per_second': 294.0, 'train_steps_per_second': 0.076, 'train_loss': 4.597211497453238, 'epoch': 1.99}
PeftModelForCausalLM(
  (base_model): LoraModel(
    (model): MiniPhi3(
      (model): Phi3Model(
        (embed_tokens): Embedding(32064, 768, padding_idx=0)
        (embed_dropout): Dropout(p=0.0, inplace=False)
        (layers): ModuleList(
          (0-11): 12 x Phi3DecoderLayer(
            (self_attn): Phi3FlashAttention2(
              (o_proj): lora.Linear(
                (base_layer): Linear(in_features=768, out_features=768, bias=False)
                (lora_dropout): ModuleDict(
                  (default): Dropout(p=0.1, inplace=False)
                )
                (lora_A): ModuleDict(
                  (default): Linear(in_features=768, out_features=64, bias=False)
                )
                (lora_B): ModuleDict(
                  (default): Linear(in_features=64, out_features=768, bias=False)
                )
                (lora_embedding_A): ParameterDict()
                (lora_embedding_B): ParameterDict()
              )
              (qkv_proj): lora.Linear(
                (base_layer): Linear(in_features=768, out_features=2304, bias=False)
                (lora_dropout): ModuleDict(
                  (default): Dropout(p=0.1, inplace=False)
                )
                (lora_A): ModuleDict(
                  (default): Linear(in_features=768, out_features=64, bias=False)
                )
                (lora_B): ModuleDict(
                  (default): Linear(in_features=64, out_features=2304, bias=False)
                )
                (lora_embedding_A): ParameterDict()
                (lora_embedding_B): ParameterDict()
              )
              (rotary_emb): Phi3RotaryEmbedding()
            )
            (mlp): Phi3MLP(
              (gate_up_proj): lora.Linear(
                (base_layer): Linear(in_features=768, out_features=4096, bias=False)
                (lora_dropout): ModuleDict(
                  (default): Dropout(p=0.1, inplace=False)
                )
                (lora_A): ModuleDict(
                  (default): Linear(in_features=768, out_features=64, bias=False)
                )
                (lora_B): ModuleDict(
                  (default): Linear(in_features=64, out_features=4096, bias=False)
                )
                (lora_embedding_A): ParameterDict()
                (lora_embedding_B): ParameterDict()
              )
              (down_proj): lora.Linear(
                (base_layer): Linear(in_features=2048, out_features=768, bias=False)
                (lora_dropout): ModuleDict(
                  (default): Dropout(p=0.1, inplace=False)
                )
                (lora_A): ModuleDict(
                  (default): Linear(in_features=2048, out_features=64, bias=False)
                )
                (lora_B): ModuleDict(
                  (default): Linear(in_features=64, out_features=768, bias=False)
                )
                (lora_embedding_A): ParameterDict()
                (lora_embedding_B): ParameterDict()
              )
              (activation_fn): SiLU()
            )
            (input_layernorm): Phi3RMSNorm()
            (resid_attn_dropout): Dropout(p=0.0, inplace=False)
            (resid_mlp_dropout): Dropout(p=0.0, inplace=False)
            (post_attention_layernorm): Phi3RMSNorm()
          )
        )
        (norm): Phi3RMSNorm()
      )
      (lm_head): Linear(in_features=768, out_features=32064, bias=False)
    )
  )
)
PeftModelForCausalLM(
  (base_model): LoraModel(
    (model): MiniPhi3(
      (model): Phi3Model(
        (embed_tokens): Embedding(32064, 768, padding_idx=0)
        (embed_dropout): Dropout(p=0.0, inplace=False)
        (layers): ModuleList(
          (0-11): 12 x Phi3DecoderLayer(
            (self_attn): Phi3FlashAttention2(
              (o_proj): lora.Linear(
                (base_layer): Linear(in_features=768, out_features=768, bias=False)
                (lora_dropout): ModuleDict(
                  (default): Dropout(p=0.1, inplace=False)
                )
                (lora_A): ModuleDict(
                  (default): Linear(in_features=768, out_features=64, bias=False)
                )
                (lora_B): ModuleDict(
                  (default): Linear(in_features=64, out_features=768, bias=False)
                )
                (lora_embedding_A): ParameterDict()
                (lora_embedding_B): ParameterDict()
              )
              (qkv_proj): lora.Linear(
                (base_layer): Linear(in_features=768, out_features=2304, bias=False)
                (lora_dropout): ModuleDict(
                  (default): Dropout(p=0.1, inplace=False)
                )
                (lora_A): ModuleDict(
                  (default): Linear(in_features=768, out_features=64, bias=False)
                )
                (lora_B): ModuleDict(
                  (default): Linear(in_features=64, out_features=2304, bias=False)
                )
                (lora_embedding_A): ParameterDict()
                (lora_embedding_B): ParameterDict()
              )
              (rotary_emb): Phi3RotaryEmbedding()
            )
            (mlp): Phi3MLP(
              (gate_up_proj): lora.Linear(
                (base_layer): Linear(in_features=768, out_features=4096, bias=False)
                (lora_dropout): ModuleDict(
                  (default): Dropout(p=0.1, inplace=False)
                )
                (lora_A): ModuleDict(
                  (default): Linear(in_features=768, out_features=64, bias=False)
                )
                (lora_B): ModuleDict(
                  (default): Linear(in_features=64, out_features=4096, bias=False)
                )
                (lora_embedding_A): ParameterDict()
                (lora_embedding_B): ParameterDict()
              )
              (down_proj): lora.Linear(
                (base_layer): Linear(in_features=2048, out_features=768, bias=False)
                (lora_dropout): ModuleDict(
                  (default): Dropout(p=0.1, inplace=False)
                )
                (lora_A): ModuleDict(
                  (default): Linear(in_features=2048, out_features=64, bias=False)
                )
                (lora_B): ModuleDict(
                  (default): Linear(in_features=64, out_features=768, bias=False)
                )
                (lora_embedding_A): ParameterDict()
                (lora_embedding_B): ParameterDict()
              )
              (activation_fn): SiLU()
            )
            (input_layernorm): Phi3RMSNorm()
            (resid_attn_dropout): Dropout(p=0.0, inplace=False)
            (resid_mlp_dropout): Dropout(p=0.0, inplace=False)
            (post_attention_layernorm): Phi3RMSNorm()
          )
        )
        (norm): Phi3RMSNorm()
      )
      (lm_head): Linear(in_features=768, out_features=32064, bias=False)
    )
  )
)
PeftModelForCausalLM(
  (base_model): LoraModel(
    (model): MiniPhi3(
      (model): Phi3Model(
        (embed_tokens): Embedding(32064, 768, padding_idx=0)
        (embed_dropout): Dropout(p=0.0, inplace=False)
        (layers): ModuleList(
          (0-11): 12 x Phi3DecoderLayer(
            (self_attn): Phi3FlashAttention2(
              (o_proj): lora.Linear(
                (base_layer): Linear(in_features=768, out_features=768, bias=False)
                (lora_dropout): ModuleDict(
                  (default): Dropout(p=0.1, inplace=False)
                )
                (lora_A): ModuleDict(
                  (default): Linear(in_features=768, out_features=64, bias=False)
                )
                (lora_B): ModuleDict(
                  (default): Linear(in_features=64, out_features=768, bias=False)
                )
                (lora_embedding_A): ParameterDict()
                (lora_embedding_B): ParameterDict()
              )
              (qkv_proj): lora.Linear(
                (base_layer): Linear(in_features=768, out_features=2304, bias=False)
                (lora_dropout): ModuleDict(
                  (default): Dropout(p=0.1, inplace=False)
                )
                (lora_A): ModuleDict(
                  (default): Linear(in_features=768, out_features=64, bias=False)
                )
                (lora_B): ModuleDict(
                  (default): Linear(in_features=64, out_features=2304, bias=False)
                )
                (lora_embedding_A): ParameterDict()
                (lora_embedding_B): ParameterDict()
              )
              (rotary_emb): Phi3RotaryEmbedding()
            )
            (mlp): Phi3MLP(
              (gate_up_proj): lora.Linear(
                (base_layer): Linear(in_features=768, out_features=4096, bias=False)
                (lora_dropout): ModuleDict(
                  (default): Dropout(p=0.1, inplace=False)
                )
                (lora_A): ModuleDict(
                  (default): Linear(in_features=768, out_features=64, bias=False)
                )
                (lora_B): ModuleDict(
                  (default): Linear(in_features=64, out_features=4096, bias=False)
                )
                (lora_embedding_A): ParameterDict()
                (lora_embedding_B): ParameterDict()
              )
              (down_proj): lora.Linear(
                (base_layer): Linear(in_features=2048, out_features=768, bias=False)
                (lora_dropout): ModuleDict(
                  (default): Dropout(p=0.1, inplace=False)
                )
                (lora_A): ModuleDict(
                  (default): Linear(in_features=2048, out_features=64, bias=False)
                )
                (lora_B): ModuleDict(
                  (default): Linear(in_features=64, out_features=768, bias=False)
                )
                (lora_embedding_A): ParameterDict()
                (lora_embedding_B): ParameterDict()
              )
              (activation_fn): SiLU()
            )
            (input_layernorm): Phi3RMSNorm()
            (resid_attn_dropout): Dropout(p=0.0, inplace=False)
            (resid_mlp_dropout): Dropout(p=0.0, inplace=False)
            (post_attention_layernorm): Phi3RMSNorm()
          )
        )
        (norm): Phi3RMSNorm()
      )
      (lm_head): Linear(in_features=768, out_features=32064, bias=False)
    )
  )
)
PeftModelForCausalLM(
  (base_model): LoraModel(
    (model): MiniPhi3(
      (model): Phi3Model(
        (embed_tokens): Embedding(32064, 768, padding_idx=0)
        (embed_dropout): Dropout(p=0.0, inplace=False)
        (layers): ModuleList(
          (0-11): 12 x Phi3DecoderLayer(
            (self_attn): Phi3FlashAttention2(
              (o_proj): lora.Linear(
                (base_layer): Linear(in_features=768, out_features=768, bias=False)
                (lora_dropout): ModuleDict(
                  (default): Dropout(p=0.1, inplace=False)
                )
                (lora_A): ModuleDict(
                  (default): Linear(in_features=768, out_features=64, bias=False)
                )
                (lora_B): ModuleDict(
                  (default): Linear(in_features=64, out_features=768, bias=False)
                )
                (lora_embedding_A): ParameterDict()
                (lora_embedding_B): ParameterDict()
              )
              (qkv_proj): lora.Linear(
                (base_layer): Linear(in_features=768, out_features=2304, bias=False)
                (lora_dropout): ModuleDict(
                  (default): Dropout(p=0.1, inplace=False)
                )
                (lora_A): ModuleDict(
                  (default): Linear(in_features=768, out_features=64, bias=False)
                )
                (lora_B): ModuleDict(
                  (default): Linear(in_features=64, out_features=2304, bias=False)
                )
                (lora_embedding_A): ParameterDict()
                (lora_embedding_B): ParameterDict()
              )
              (rotary_emb): Phi3RotaryEmbedding()
            )
            (mlp): Phi3MLP(
              (gate_up_proj): lora.Linear(
                (base_layer): Linear(in_features=768, out_features=4096, bias=False)
                (lora_dropout): ModuleDict(
                  (default): Dropout(p=0.1, inplace=False)
                )
                (lora_A): ModuleDict(
                  (default): Linear(in_features=768, out_features=64, bias=False)
                )
                (lora_B): ModuleDict(
                  (default): Linear(in_features=64, out_features=4096, bias=False)
                )
                (lora_embedding_A): ParameterDict()
                (lora_embedding_B): ParameterDict()
              )
              (down_proj): lora.Linear(
                (base_layer): Linear(in_features=2048, out_features=768, bias=False)
                (lora_dropout): ModuleDict(
                  (default): Dropout(p=0.1, inplace=False)
                )
                (lora_A): ModuleDict(
                  (default): Linear(in_features=2048, out_features=64, bias=False)
                )
                (lora_B): ModuleDict(
                  (default): Linear(in_features=64, out_features=768, bias=False)
                )
                (lora_embedding_A): ParameterDict()
                (lora_embedding_B): ParameterDict()
              )
              (activation_fn): SiLU()
            )
            (input_layernorm): Phi3RMSNorm()
            (resid_attn_dropout): Dropout(p=0.0, inplace=False)
            (resid_mlp_dropout): Dropout(p=0.0, inplace=False)
            (post_attention_layernorm): Phi3RMSNorm()
          )
        )
        (norm): Phi3RMSNorm()
      )
      (lm_head): Linear(in_features=768, out_features=32064, bias=False)
    )
  )
)
PeftModelForCausalLM(
  (base_model): LoraModel(
    (model): MiniPhi3(
      (model): Phi3Model(
        (embed_tokens): Embedding(32064, 768, padding_idx=0)
        (embed_dropout): Dropout(p=0.0, inplace=False)
        (layers): ModuleList(
          (0-11): 12 x Phi3DecoderLayer(
            (self_attn): Phi3FlashAttention2(
              (o_proj): lora.Linear(
                (base_layer): Linear(in_features=768, out_features=768, bias=False)
                (lora_dropout): ModuleDict(
                  (default): Dropout(p=0.1, inplace=False)
                )
                (lora_A): ModuleDict(
                  (default): Linear(in_features=768, out_features=64, bias=False)
                )
                (lora_B): ModuleDict(
                  (default): Linear(in_features=64, out_features=768, bias=False)
                )
                (lora_embedding_A): ParameterDict()
                (lora_embedding_B): ParameterDict()
              )
              (qkv_proj): lora.Linear(
                (base_layer): Linear(in_features=768, out_features=2304, bias=False)
                (lora_dropout): ModuleDict(
                  (default): Dropout(p=0.1, inplace=False)
                )
                (lora_A): ModuleDict(
                  (default): Linear(in_features=768, out_features=64, bias=False)
                )
                (lora_B): ModuleDict(
                  (default): Linear(in_features=64, out_features=2304, bias=False)
                )
                (lora_embedding_A): ParameterDict()
                (lora_embedding_B): ParameterDict()
              )
              (rotary_emb): Phi3RotaryEmbedding()
            )
            (mlp): Phi3MLP(
              (gate_up_proj): lora.Linear(
                (base_layer): Linear(in_features=768, out_features=4096, bias=False)
                (lora_dropout): ModuleDict(
                  (default): Dropout(p=0.1, inplace=False)
                )
                (lora_A): ModuleDict(
                  (default): Linear(in_features=768, out_features=64, bias=False)
                )
                (lora_B): ModuleDict(
                  (default): Linear(in_features=64, out_features=4096, bias=False)
                )
                (lora_embedding_A): ParameterDict()
                (lora_embedding_B): ParameterDict()
              )
              (down_proj): lora.Linear(
                (base_layer): Linear(in_features=2048, out_features=768, bias=False)
                (lora_dropout): ModuleDict(
                  (default): Dropout(p=0.1, inplace=False)
                )
                (lora_A): ModuleDict(
                  (default): Linear(in_features=2048, out_features=64, bias=False)
                )
                (lora_B): ModuleDict(
                  (default): Linear(in_features=64, out_features=768, bias=False)
                )
                (lora_embedding_A): ParameterDict()
                (lora_embedding_B): ParameterDict()
              )
              (activation_fn): SiLU()
            )
            (input_layernorm): Phi3RMSNorm()
            (resid_attn_dropout): Dropout(p=0.0, inplace=False)
            (resid_mlp_dropout): Dropout(p=0.0, inplace=False)
            (post_attention_layernorm): Phi3RMSNorm()
          )
        )
        (norm): Phi3RMSNorm()
      )
      (lm_head): Linear(in_features=768, out_features=32064, bias=False)
    )
  )
)
PeftModelForCausalLM(
  (base_model): LoraModel(
    (model): MiniPhi3(
      (model): Phi3Model(
        (embed_tokens): Embedding(32064, 768, padding_idx=0)
        (embed_dropout): Dropout(p=0.0, inplace=False)
        (layers): ModuleList(
          (0-11): 12 x Phi3DecoderLayer(
            (self_attn): Phi3FlashAttention2(
              (o_proj): lora.Linear(
                (base_layer): Linear(in_features=768, out_features=768, bias=False)
                (lora_dropout): ModuleDict(
                  (default): Dropout(p=0.1, inplace=False)
                )
                (lora_A): ModuleDict(
                  (default): Linear(in_features=768, out_features=64, bias=False)
                )
                (lora_B): ModuleDict(
                  (default): Linear(in_features=64, out_features=768, bias=False)
                )
                (lora_embedding_A): ParameterDict()
                (lora_embedding_B): ParameterDict()
              )
              (qkv_proj): lora.Linear(
                (base_layer): Linear(in_features=768, out_features=2304, bias=False)
                (lora_dropout): ModuleDict(
                  (default): Dropout(p=0.1, inplace=False)
                )
                (lora_A): ModuleDict(
                  (default): Linear(in_features=768, out_features=64, bias=False)
                )
                (lora_B): ModuleDict(
                  (default): Linear(in_features=64, out_features=2304, bias=False)
                )
                (lora_embedding_A): ParameterDict()
                (lora_embedding_B): ParameterDict()
              )
              (rotary_emb): Phi3RotaryEmbedding()
            )
            (mlp): Phi3MLP(
              (gate_up_proj): lora.Linear(
                (base_layer): Linear(in_features=768, out_features=4096, bias=False)
                (lora_dropout): ModuleDict(
                  (default): Dropout(p=0.1, inplace=False)
                )
                (lora_A): ModuleDict(
                  (default): Linear(in_features=768, out_features=64, bias=False)
                )
                (lora_B): ModuleDict(
                  (default): Linear(in_features=64, out_features=4096, bias=False)
                )
                (lora_embedding_A): ParameterDict()
                (lora_embedding_B): ParameterDict()
              )
              (down_proj): lora.Linear(
                (base_layer): Linear(in_features=2048, out_features=768, bias=False)
                (lora_dropout): ModuleDict(
                  (default): Dropout(p=0.1, inplace=False)
                )
                (lora_A): ModuleDict(
                  (default): Linear(in_features=2048, out_features=64, bias=False)
                )
                (lora_B): ModuleDict(
                  (default): Linear(in_features=64, out_features=768, bias=False)
                )
                (lora_embedding_A): ParameterDict()
                (lora_embedding_B): ParameterDict()
              )
              (activation_fn): SiLU()
            )
            (input_layernorm): Phi3RMSNorm()
            (resid_attn_dropout): Dropout(p=0.0, inplace=False)
            (resid_mlp_dropout): Dropout(p=0.0, inplace=False)
            (post_attention_layernorm): Phi3RMSNorm()
          )
        )
        (norm): Phi3RMSNorm()
      )
      (lm_head): Linear(in_features=768, out_features=32064, bias=False)
    )
  )
)
[2025-02-16 18:05:22,170] [INFO] [launch.py:351:main] Process 4143570 exits successfully.
[2025-02-16 18:05:23,172] [INFO] [launch.py:351:main] Process 4143573 exits successfully.
[2025-02-16 18:05:23,173] [INFO] [launch.py:351:main] Process 4143574 exits successfully.
[2025-02-16 18:05:23,173] [INFO] [launch.py:351:main] Process 4143571 exits successfully.
…
